…
   "outputs": [],
   "source": [
    "model.build(input_shape=input_shape)\n"
   ]
  },
  {
   "cell_type": "code",
   "execution_count": 149,
   "id": "078e99ea",
   "metadata": {
    "scrolled": true
   },
   "outputs": [
    {
     "name": "stdout",
     "output_type": "stream",
     "text": [
      "Model: \"sequential_28\"\n",
      "_________________________________________________________________\n",
      " Layer (type)                Output Shape              Param #   \n",
      "=================================================================\n",
      " conv2d_62 (Conv2D)          (None, 254, 254, 16)      448       \n",
      "                                                                 \n",
      " max_pooling2d_61 (MaxPoolin  (None, 127, 127, 16)     0         \n",
      " g2D)                                                            \n",
      "                                                                 \n",
      " conv2d_63 (Conv2D)          (None, 125, 125, 32)      4640      \n",
      "                                                                 \n",
      " max_pooling2d_62 (MaxPoolin  (None, 62, 62, 32)       0         \n",
      " g2D)                                                            \n",
      "                                                                 \n",
      " conv2d_64 (Conv2D)          (None, 60, 60, 32)        9248      \n",
      "                                                                 \n",
      " max_pooling2d_63 (MaxPoolin  (None, 30, 30, 32)       0         \n",
      " g2D)                                                            \n",
      "                                                                 \n",
      " flatten_15 (Flatten)        (None, 28800)             0         \n",
      "                                                                 \n",
      " dense_30 (Dense)            (None, 256)               7373056   \n",
      "                                                                 \n",
      " dense_31 (Dense)            (None, 1)                 257       \n",
      "                                                                 \n",
      "=================================================================\n",
      "Total params: 7,387,649\n",
      "Trainable params: 7,387,649\n",
      "Non-trainable params: 0\n",
      "_________________________________________________________________\n"
     ]
    }
   ],
   "source": [
    "model.summary()"
…
